Num GPUs Available:  0
orig x_train shape: (19999, 32, 32, 3)
Model: "sequential"
_________________________________________________________________
Layer (type)                 Output Shape              Param #   
=================================================================
conv2d (Conv2D)              (None, 32, 32, 16)        448       
_________________________________________________________________
conv2d_1 (Conv2D)            (None, 16, 16, 16)        2320      
_________________________________________________________________
conv2d_2 (Conv2D)            (None, 16, 16, 32)        4640      
_________________________________________________________________
conv2d_3 (Conv2D)            (None, 8, 8, 32)          9248      
_________________________________________________________________
dropout (Dropout)            (None, 8, 8, 32)          0         
_________________________________________________________________
flatten (Flatten)            (None, 2048)              0         
_________________________________________________________________
dense (Dense)                (None, 10)                20490     
=================================================================
Total params: 37,146
Trainable params: 37,146
Non-trainable params: 0
_________________________________________________________________
Epoch 1/20
  1/141 [..............................] - ETA: 0s - loss: 2.3621 - accuracy: 0.0781  2/141 [..
…
