orig x_train shape: (4999, 32, 32, 3)
Model: "sequential"
_________________________________________________________________
Layer (type)                 Output Shape              Param #   
=================================================================
conv2d (Conv2D)              (None, 32, 32, 16)        448       
_________________________________________________________________
max_pooling2d (MaxPooling2D) (None, 16, 16, 16)        0         
_________________________________________________________________
conv2d_1 (Conv2D)            (None, 16, 16, 32)        4640      
_________________________________________________________________
max_pooling2d_1 (MaxPooling2 (None, 8, 8, 32)          0         
_________________________________________________________________
dropout (Dropout)            (None, 8, 8, 32)          0         
_________________________________________________________________
flatten (Flatten)            (None, 2048)              0         
_________________________________________________________________
dense (Dense)                (None, 10)                20490     
=================================================================
Total params: 25,578
Trainable params: 25,578
Non-trainable params: 0
_________________________________________________________________
Epoch 1/20
 1/36 [..............................] - ETA: 0s - loss: 2.3763 - accuracy: 0.0547 3/36 [=>......
…
